…
&lt;span class=&quot;n&quot;&gt;model&lt;/span&gt;&lt;span class=&quot;o&quot;&gt;.&lt;/span&gt;&lt;span class=&quot;n&quot;&gt;summary&lt;/span&gt;&lt;span class=&quot;p&quot;&gt;()&lt;/span&gt;
&lt;/pre&gt;&lt;/div&gt;

    &lt;/div&gt;
&lt;/div&gt;
&lt;/div&gt;

&lt;div class=&quot;output_wrapper&quot;&gt;
&lt;div class=&quot;output&quot;&gt;

&lt;div class=&quot;output_area&quot;&gt;

&lt;div class=&quot;output_subarea output_stream output_stdout output_text&quot;&gt;
&lt;pre&gt;Model: &amp;#34;sequential_1&amp;#34;
_________________________________________________________________
Layer (type)                 Output Shape              Param #   
=================================================================
conv2d_3 (Conv2D)            (None, 126, 126, 32)      896       
_________________________________________________________________
batch_normalization_3 (Batch (None, 126, 126, 32)      128       
_________________________________________________________________
max_pooling2d_3 (MaxPooling2 (None, 63, 63, 32)        0         
_________________________________________________________________
dropout_4 (Dropout)          (None, 63, 63, 32)        0         
_________________________________________________________________
conv2d_4 (Conv2D)            (None, 61, 61, 64)        18496     
_________________________________________________________________
batch_normalization_4 (Batch (None, 61, 61, 64)        256       
_________________________________________________________________
max_pooling2d_4 (MaxPooling2 (None, 30, 30, 64)        0         
_________________________________________________________________
dropout_5 (Dropout)          (None, 30, 30, 64)        0         
_________________________________________________________________
conv2d_5 (Conv2D)            (None, 28, 28, 128)       73856     
_________________________________________________________________
batch_normalization_5 (Batch (None, 28, 28, 128)       512       
_________________________________________________________________
max_pooling2d_5 (MaxPooling2 (None, 14, 14, 128)       0         
_________________________________________________________________
dropout_6 (Dropout)          (None, 14, 14, 128)       0         
_________________________________________________________________
flatten_1 (Flatten)          (None, 25088)             0         
_________________________________________________________________
dense_2 (Dense)              (None, 512)               12845568  
_________________________________________________________________
dropout_7 (Dropout)          (None, 512)               0         
_________________________________________________________________
dense_3 (Dense)              (None, 2)                 1026      
=================================================================
Total params: 12,940,738
Trainable params: 12,940,290
Non-trainable params: 448
_________________________________________________________________
&lt;/pre&gt;
&lt;/div&gt;
&lt;/div&gt;

&lt;/div&gt;
&lt;/div&gt;

&lt;/div&gt;
    

&lt;div class=&quot;cell border-box-sizing text_cell rendered&quot;&gt;&lt;div class=&quot;inner_cell&quot;&gt;
…
